{"backend": "tensorflow", "keras_version": "2.1.5", "config": {"layers": [{"inbound_nodes": [], "config": {"sparse": false, "dtype": "float32", "batch_input_shape": [null, 3, 112, 112], "name": "input_1"}, "class_name": "InputLayer", "name": "input_1"}, {"inbound_nodes": [[["input_1", 0, 0, {}]]], "config": {"activation": "linear", "name": "conv2d_1", "bias_initializer": {"config": {}, "class_name": "Zeros"}, "activity_regularizer": null, "strides": [1, 1], "bias_regularizer": null, "filters": 6, "kernel_size": [3, 3], "kernel_initializer": {"config": {"seed": null, "mode": "fan_in", "scale": 2.0, "distribution": "uniform"}, "class_name": "VarianceScaling"}, "trainable": true, "kernel_constraint": null, "dilation_rate": [1, 1], "padding": "same", "bias_constraint": null, "kernel_regularizer": null, "data_format": "channels_first", "use_bias": true}, "class_name": "Conv2D", "name": "conv2d_1"}, {"inbound_nodes": [[["conv2d_1", 0, 0, {}]]], "config": {"momentum": 0.99, "gamma_initializer": {"config": {}, "class_name": "Ones"}, "name": "batch_normalization_1", "moving_mean_initializer": {"config": {}, "class_name": "Zeros"}, "beta_initializer": {"config": {}, "class_name": "Zeros"}, "beta_regularizer": null, "center": true, "axis": 1, "moving_variance_initializer": {"config": {}, "class_name": "Ones"}, "epsilon": 0.001, "scale": true, "trainable": true, "beta_constraint": null, "gamma_regularizer": null, "gamma_constraint": null}, "class_name": "BatchNormalization", "name": "batch_normalization_1"}, {"inbound_nodes": [[["batch_normalization_1", 0, 0, {}]]], "config": {"trainable": true, "alpha": 1.0, "name": "elu_1"}, "class_name": "ELU", "name": "elu_1"}, {"inbound_nodes": [[["elu_1", 0, 0, {}]]], "config": {"activation": "linear", "name": "conv2d_2", "bias_initializer": {"config": {}, "class_name": "Zeros"}, "activity_regularizer": null, "strides": [1, 1], "bias_regularizer": null, "filters": 6, "kernel_size": [3, 3], "kernel_initializer": {"config": {"seed": null, "mode": "fan_in", "scale": 2.0, "distribution": "uniform"}, "class_name": "VarianceScaling"}, "trainable": true, "kernel_constraint": null, "dilation_rate": [1, 1], "padding": "same", "bias_constraint": null, "kernel_regularizer": null, "data_format": "channels_first", "use_bias": true}, "class_name": "Conv2D", "name": "conv2d_2"}, {"inbound_nodes": [[["conv2d_2", 0, 0, {}]]], "config": {"momentum": 0.99, "gamma_initializer": {"config": {}, "class_name": "Ones"}, "name": "batch_normalization_2", "moving_mean_initializer": {"config": {}, "class_name": "Zeros"}, "beta_initializer": {"config": {}, "class_name": "Zeros"}, "beta_regularizer": null, "center": true, "axis": 1, "moving_variance_initializer": {"config": {}, "class_name": "Ones"}, "epsilon": 0.001, "scale": true, "trainable": true, "beta_constraint": null, "gamma_regularizer": null, "gamma_constraint": null}, "class_name": "BatchNormalization", "name": "batch_normalization_2"}, {"inbound_nodes": [[["batch_normalization_2", 0, 0, {}]]], "config": {"trainable": true, "alpha": 1.0, "name": "elu_2"}, "class_name": "ELU", "name": "elu_2"}, {"inbound_nodes": [[["elu_2", 0, 0, {}]]], "config": {"name": "max_pooling2d_1", "padding": "valid", "strides": [2, 2], "trainable": true, "pool_size": [2, 2], "data_format": "channels_first"}, "class_name": "MaxPooling2D", "name": "max_pooling2d_1"}, {"inbound_nodes": [[["max_pooling2d_1", 0, 0, {}]]], "config": {"activation": "linear", "name": "conv2d_3", "bias_initializer": {"config": {}, "class_name": "Zeros"}, "activity_regularizer": null, "strides": [1, 1], "bias_regularizer": null, "filters": 12, "kernel_size": [3, 3], "kernel_initializer": {"config": {"seed": null, "mode": "fan_in", "scale": 2.0, "distribution": "uniform"}, "class_name": "VarianceScaling"}, "trainable": true, "kernel_constraint": null, "dilation_rate": [1, 1], "padding": "same", "bias_constraint": null, "kernel_regularizer": null, "data_format": "channels_first", "use_bias": true}, "class_name": "Conv2D", "name": "conv2d_3"}, {"inbound_nodes": [[["conv2d_3", 0, 0, {}]]], "config": {"momentum": 0.99, "gamma_initializer": {"config": {}, "class_name": "Ones"}, "name": "batch_normalization_3", "moving_mean_initializer": {"config": {}, "class_name": "Zeros"}, "beta_initializer": {"config": {}, "class_name": "Zeros"}, "beta_regularizer": null, "center": true, "axis": 1, "moving_variance_initializer": {"config": {}, "class_name": "Ones"}, "epsilon": 0.001, "scale": true, "trainable": true, "beta_constraint": null, "gamma_regularizer": null, "gamma_constraint": null}, "class_name": "BatchNormalization", "name": "batch_normalization_3"}, {"inbound_nodes": [[["batch_normalization_3", 0, 0, {}]]], "config": {"trainable": true, "alpha": 1.0, "name": "elu_3"}, "class_name": "ELU", "name": "elu_3"}, {"inbound_nodes": [[["elu_3", 0, 0, {}]]], "config": {"activation": "linear", "name": "conv2d_4", "bias_initializer": {"config": {}, "class_name": "Zeros"}, "activity_regularizer": null, "strides": [1, 1], "bias_regularizer": null, "filters": 12, "kernel_size": [3, 3], "kernel_initializer": {"config": {"seed": null, "mode": "fan_in", "scale": 2.0, "distribution": "uniform"}, "class_name": "VarianceScaling"}, "trainable": true, "kernel_constraint": null, "dilation_rate": [1, 1], "padding": "same", "bias_constraint": null, "kernel_regularizer": null, "data_format": "channels_first", "use_bias": true}, "class_name": "Conv2D", "name": "conv2d_4"}, {"inbound_nodes": [[["conv2d_4", 0, 0, {}]]], "config": {"momentum": 0.99, "gamma_initializer": {"config": {}, "class_name": "Ones"}, "name": "batch_normalization_4", "moving_mean_initializer": {"config": {}, "class_name": "Zeros"}, "beta_initializer": {"config": {}, "class_name": "Zeros"}, "beta_regularizer": null, "center": true, "axis": 1, "moving_variance_initializer": {"config": {}, "class_name": "Ones"}, "epsilon": 0.001, "scale": true, "trainable": true, "beta_constraint": null, "gamma_regularizer": null, "gamma_constraint": null}, "class_name": "BatchNormalization", "name": "batch_normalization_4"}, {"inbound_nodes": [[["batch_normalization_4", 0, 0, {}]]], "config": {"trainable": true, "alpha": 1.0, "name": "elu_4"}, "class_name": "ELU", "name": "elu_4"}, {"inbound_nodes": [[["elu_4", 0, 0, {}]]], "config": {"name": "max_pooling2d_2", "padding": "valid", "strides": [2, 2], "trainable": true, "pool_size": [2, 2], "data_format": "channels_first"}, "class_name": "MaxPooling2D", "name": "max_pooling2d_2"}, {"inbound_nodes": [[["max_pooling2d_2", 0, 0, {}]]], "config": {"activation": "linear", "name": "conv2d_5", "bias_initializer": {"config": {}, "class_name": "Zeros"}, "activity_regularizer": null, "strides": [1, 1], "bias_regularizer": null, "filters": 24, "kernel_size": [3, 3], "kernel_initializer": {"config": {"seed": null, "mode": "fan_in", "scale": 2.0, "distribution": "uniform"}, "class_name": "VarianceScaling"}, "trainable": true, "kernel_constraint": null, "dilation_rate": [1, 1], "padding": "same", "bias_constraint": null, "kernel_regularizer": null, "data_format": "channels_first", "use_bias": true}, "class_name": "Conv2D", "name": "conv2d_5"}, {"inbound_nodes": [[["conv2d_5", 0, 0, {}]]], "config": {"momentum": 0.99, "gamma_initializer": {"config": {}, "class_name": "Ones"}, "name": "batch_normalization_5", "moving_mean_initializer": {"config": {}, "class_name": "Zeros"}, "beta_initializer": {"config": {}, "class_name": "Zeros"}, "beta_regularizer": null, "center": true, "axis": 1, "moving_variance_initializer": {"config": {}, "class_name": "Ones"}, "epsilon": 0.001, "scale": true, "trainable": true, "beta_constraint": null, "gamma_regularizer": null, "gamma_constraint": null}, "class_name": "BatchNormalization", "name": "batch_normalization_5"}, {"inbound_nodes": [[["batch_normalization_5", 0, 0, {}]]], "config": {"trainable": true, "alpha": 1.0, "name": "elu_5"}, "class_name": "ELU", "name": "elu_5"}, {"inbound_nodes": [[["elu_5", 0, 0, {}]]], "config": {"activation": "linear", "name": "conv2d_6", "bias_initializer": {"config": {}, "class_name": "Zeros"}, "activity_regularizer": null, "strides": [1, 1], "bias_regularizer": null, "filters": 24, "kernel_size": [3, 3], "kernel_initializer": {"config": {"seed": null, "mode": "fan_in", "scale": 2.0, "distribution": "uniform"}, "class_name": "VarianceScaling"}, "trainable": true, "kernel_constraint": null, "dilation_rate": [1, 1], "padding": "same", "bias_constraint": null, "kernel_regularizer": null, "data_format": "channels_first", "use_bias": true}, "class_name": "Conv2D", "name": "conv2d_6"}, {"inbound_nodes": [[["conv2d_6", 0, 0, {}]]], "config": {"momentum": 0.99, "gamma_initializer": {"config": {}, "class_name": "Ones"}, "name": "batch_normalization_6", "moving_mean_initializer": {"config": {}, "class_name": "Zeros"}, "beta_initializer": {"config": {}, "class_name": "Zeros"}, "beta_regularizer": null, "center": true, "axis": 1, "moving_variance_initializer": {"config": {}, "class_name": "Ones"}, "epsilon": 0.001, "scale": true, "trainable": true, "beta_constraint": null, "gamma_regularizer": null, "gamma_constraint": null}, "class_name": "BatchNormalization", "name": "batch_normalization_6"}, {"inbound_nodes": [[["batch_normalization_6", 0, 0, {}]]], "config": {"trainable": true, "alpha": 1.0, "name": "elu_6"}, "class_name": "ELU", "name": "elu_6"}, {"inbound_nodes": [[["elu_6", 0, 0, {}]]], "config": {"name": "max_pooling2d_3", "padding": "valid", "strides": [2, 2], "trainable": true, "pool_size": [2, 2], "data_format": "channels_first"}, "class_name": "MaxPooling2D", "name": "max_pooling2d_3"}, {"inbound_nodes": [[["max_pooling2d_3", 0, 0, {}]]], "config": {"activation": "linear", "name": "conv2d_7", "bias_initializer": {"config": {}, "class_name": "Zeros"}, "activity_regularizer": null, "strides": [1, 1], "bias_regularizer": null, "filters": 48, "kernel_size": [3, 3], "kernel_initializer": {"config": {"seed": null, "mode": "fan_in", "scale": 2.0, "distribution": "uniform"}, "class_name": "VarianceScaling"}, "trainable": true, "kernel_constraint": null, "dilation_rate": [1, 1], "padding": "same", "bias_constraint": null, "kernel_regularizer": null, "data_format": "channels_first", "use_bias": true}, "class_name": "Conv2D", "name": "conv2d_7"}, {"inbound_nodes": [[["conv2d_7", 0, 0, {}]]], "config": {"momentum": 0.99, "gamma_initializer": {"config": {}, "class_name": "Ones"}, "name": "batch_normalization_7", "moving_mean_initializer": {"config": {}, "class_name": "Zeros"}, "beta_initializer": {"config": {}, "class_name": "Zeros"}, "beta_regularizer": null, "center": true, "axis": 1, "moving_variance_initializer": {"config": {}, "class_name": "Ones"}, "epsilon": 0.001, "scale": true, "trainable": true, "beta_constraint": null, "gamma_regularizer": null, "gamma_constraint": null}, "class_name": "BatchNormalization", "name": "batch_normalization_7"}, {"inbound_nodes": [[["batch_normalization_7", 0, 0, {}]]], "config": {"trainable": true, "alpha": 1.0, "name": "elu_7"}, "class_name": "ELU", "name": "elu_7"}, {"inbound_nodes": [[["elu_7", 0, 0, {}]]], "config": {"activation": "linear", "name": "conv2d_8", "bias_initializer": {"config": {}, "class_name": "Zeros"}, "activity_regularizer": null, "strides": [1, 1], "bias_regularizer": null, "filters": 48, "kernel_size": [3, 3], "kernel_initializer": {"config": {"seed": null, "mode": "fan_in", "scale": 2.0, "distribution": "uniform"}, "class_name": "VarianceScaling"}, "trainable": true, "kernel_constraint": null, "dilation_rate": [1, 1], "padding": "same", "bias_constraint": null, "kernel_regularizer": null, "data_format": "channels_first", "use_bias": true}, "class_name": "Conv2D", "name": "conv2d_8"}, {"inbound_nodes": [[["conv2d_8", 0, 0, {}]]], "config": {"momentum": 0.99, "gamma_initializer": {"config": {}, "class_name": "Ones"}, "name": "batch_normalization_8", "moving_mean_initializer": {"config": {}, "class_name": "Zeros"}, "beta_initializer": {"config": {}, "class_name": "Zeros"}, "beta_regularizer": null, "center": true, "axis": 1, "moving_variance_initializer": {"config": {}, "class_name": "Ones"}, "epsilon": 0.001, "scale": true, "trainable": true, "beta_constraint": null, "gamma_regularizer": null, "gamma_constraint": null}, "class_name": "BatchNormalization", "name": "batch_normalization_8"}, {"inbound_nodes": [[["batch_normalization_8", 0, 0, {}]]], "config": {"trainable": true, "alpha": 1.0, "name": "elu_8"}, "class_name": "ELU", "name": "elu_8"}, {"inbound_nodes": [[["elu_8", 0, 0, {}]]], "config": {"name": "max_pooling2d_4", "padding": "valid", "strides": [2, 2], "trainable": true, "pool_size": [2, 2], "data_format": "channels_first"}, "class_name": "MaxPooling2D", "name": "max_pooling2d_4"}, {"inbound_nodes": [[["max_pooling2d_4", 0, 0, {}]]], "config": {"activation": "linear", "name": "conv2d_9", "bias_initializer": {"config": {}, "class_name": "Zeros"}, "activity_regularizer": null, "strides": [1, 1], "bias_regularizer": null, "filters": 96, "kernel_size": [3, 3], "kernel_initializer": {"config": {"seed": null, "mode": "fan_in", "scale": 2.0, "distribution": "uniform"}, "class_name": "VarianceScaling"}, "trainable": true, "kernel_constraint": null, "dilation_rate": [1, 1], "padding": "same", "bias_constraint": null, "kernel_regularizer": null, "data_format": "channels_first", "use_bias": true}, "class_name": "Conv2D", "name": "conv2d_9"}, {"inbound_nodes": [[["conv2d_9", 0, 0, {}]]], "config": {"momentum": 0.99, "gamma_initializer": {"config": {}, "class_name": "Ones"}, "name": "batch_normalization_9", "moving_mean_initializer": {"config": {}, "class_name": "Zeros"}, "beta_initializer": {"config": {}, "class_name": "Zeros"}, "beta_regularizer": null, "center": true, "axis": 1, "moving_variance_initializer": {"config": {}, "class_name": "Ones"}, "epsilon": 0.001, "scale": true, "trainable": true, "beta_constraint": null, "gamma_regularizer": null, "gamma_constraint": null}, "class_name": "BatchNormalization", "name": "batch_normalization_9"}, {"inbound_nodes": [[["batch_normalization_9", 0, 0, {}]]], "config": {"trainable": true, "alpha": 1.0, "name": "elu_9"}, "class_name": "ELU", "name": "elu_9"}, {"inbound_nodes": [[["elu_9", 0, 0, {}]]], "config": {"activation": "linear", "name": "conv2d_10", "bias_initializer": {"config": {}, "class_name": "Zeros"}, "activity_regularizer": null, "strides": [1, 1], "bias_regularizer": null, "filters": 96, "kernel_size": [3, 3], "kernel_initializer": {"config": {"seed": null, "mode": "fan_in", "scale": 2.0, "distribution": "uniform"}, "class_name": "VarianceScaling"}, "trainable": true, "kernel_constraint": null, "dilation_rate": [1, 1], "padding": "same", "bias_constraint": null, "kernel_regularizer": null, "data_format": "channels_first", "use_bias": true}, "class_name": "Conv2D", "name": "conv2d_10"}, {"inbound_nodes": [[["conv2d_10", 0, 0, {}]]], "config": {"momentum": 0.99, "gamma_initializer": {"config": {}, "class_name": "Ones"}, "name": "batch_normalization_10", "moving_mean_initializer": {"config": {}, "class_name": "Zeros"}, "beta_initializer": {"config": {}, "class_name": "Zeros"}, "beta_regularizer": null, "center": true, "axis": 1, "moving_variance_initializer": {"config": {}, "class_name": "Ones"}, "epsilon": 0.001, "scale": true, "trainable": true, "beta_constraint": null, "gamma_regularizer": null, "gamma_constraint": null}, "class_name": "BatchNormalization", "name": "batch_normalization_10"}, {"inbound_nodes": [[["batch_normalization_10", 0, 0, {}]]], "config": {"trainable": true, "alpha": 1.0, "name": "elu_10"}, "class_name": "ELU", "name": "elu_10"}, {"inbound_nodes": [[["elu_10", 0, 0, {}]]], "config": {"trainable": true, "name": "up_sampling2d_1", "size": [2, 2], "data_format": "channels_first"}, "class_name": "UpSampling2D", "name": "up_sampling2d_1"}, {"inbound_nodes": [[["up_sampling2d_1", 0, 0, {"mask": [null, null]}], ["elu_8", 0, 0, {"mask": [null, null]}]]], "config": {"mode_type": "raw", "name": "merge_1", "concat_axis": 1, "output_shape": null, "mode": "concat", "dot_axes": -1, "arguments": {}, "output_shape_type": "raw", "output_mask": null, "output_mask_type": "raw"}, "class_name": "Merge", "name": "merge_1"}, {"inbound_nodes": [[["merge_1", 0, 0, {}]]], "config": {"activation": "linear", "name": "conv2d_11", "bias_initializer": {"config": {}, "class_name": "Zeros"}, "activity_regularizer": null, "strides": [1, 1], "bias_regularizer": null, "filters": 48, "kernel_size": [3, 3], "kernel_initializer": {"config": {"seed": null, "mode": "fan_in", "scale": 2.0, "distribution": "uniform"}, "class_name": "VarianceScaling"}, "trainable": true, "kernel_constraint": null, "dilation_rate": [1, 1], "padding": "same", "bias_constraint": null, "kernel_regularizer": null, "data_format": "channels_first", "use_bias": true}, "class_name": "Conv2D", "name": "conv2d_11"}, {"inbound_nodes": [[["conv2d_11", 0, 0, {}]]], "config": {"momentum": 0.99, "gamma_initializer": {"config": {}, "class_name": "Ones"}, "name": "batch_normalization_11", "moving_mean_initializer": {"config": {}, "class_name": "Zeros"}, "beta_initializer": {"config": {}, "class_name": "Zeros"}, "beta_regularizer": null, "center": true, "axis": 1, "moving_variance_initializer": {"config": {}, "class_name": "Ones"}, "epsilon": 0.001, "scale": true, "trainable": true, "beta_constraint": null, "gamma_regularizer": null, "gamma_constraint": null}, "class_name": "BatchNormalization", "name": "batch_normalization_11"}, {"inbound_nodes": [[["batch_normalization_11", 0, 0, {}]]], "config": {"trainable": true, "alpha": 1.0, "name": "elu_11"}, "class_name": "ELU", "name": "elu_11"}, {"inbound_nodes": [[["elu_11", 0, 0, {}]]], "config": {"activation": "linear", "name": "conv2d_12", "bias_initializer": {"config": {}, "class_name": "Zeros"}, "activity_regularizer": null, "strides": [1, 1], "bias_regularizer": null, "filters": 48, "kernel_size": [3, 3], "kernel_initializer": {"config": {"seed": null, "mode": "fan_in", "scale": 2.0, "distribution": "uniform"}, "class_name": "VarianceScaling"}, "trainable": true, "kernel_constraint": null, "dilation_rate": [1, 1], "padding": "same", "bias_constraint": null, "kernel_regularizer": null, "data_format": "channels_first", "use_bias": true}, "class_name": "Conv2D", "name": "conv2d_12"}, {"inbound_nodes": [[["conv2d_12", 0, 0, {}]]], "config": {"momentum": 0.99, "gamma_initializer": {"config": {}, "class_name": "Ones"}, "name": "batch_normalization_12", "moving_mean_initializer": {"config": {}, "class_name": "Zeros"}, "beta_initializer": {"config": {}, "class_name": "Zeros"}, "beta_regularizer": null, "center": true, "axis": 1, "moving_variance_initializer": {"config": {}, "class_name": "Ones"}, "epsilon": 0.001, "scale": true, "trainable": true, "beta_constraint": null, "gamma_regularizer": null, "gamma_constraint": null}, "class_name": "BatchNormalization", "name": "batch_normalization_12"}, {"inbound_nodes": [[["batch_normalization_12", 0, 0, {}]]], "config": {"trainable": true, "alpha": 1.0, "name": "elu_12"}, "class_name": "ELU", "name": "elu_12"}, {"inbound_nodes": [[["elu_12", 0, 0, {}]]], "config": {"trainable": true, "name": "up_sampling2d_2", "size": [2, 2], "data_format": "channels_first"}, "class_name": "UpSampling2D", "name": "up_sampling2d_2"}, {"inbound_nodes": [[["up_sampling2d_2", 0, 0, {"mask": [null, null]}], ["elu_6", 0, 0, {"mask": [null, null]}]]], "config": {"mode_type": "raw", "name": "merge_2", "concat_axis": 1, "output_shape": null, "mode": "concat", "dot_axes": -1, "arguments": {}, "output_shape_type": "raw", "output_mask": null, "output_mask_type": "raw"}, "class_name": "Merge", "name": "merge_2"}, {"inbound_nodes": [[["merge_2", 0, 0, {}]]], "config": {"activation": "linear", "name": "conv2d_13", "bias_initializer": {"config": {}, "class_name": "Zeros"}, "activity_regularizer": null, "strides": [1, 1], "bias_regularizer": null, "filters": 24, "kernel_size": [3, 3], "kernel_initializer": {"config": {"seed": null, "mode": "fan_in", "scale": 2.0, "distribution": "uniform"}, "class_name": "VarianceScaling"}, "trainable": true, "kernel_constraint": null, "dilation_rate": [1, 1], "padding": "same", "bias_constraint": null, "kernel_regularizer": null, "data_format": "channels_first", "use_bias": true}, "class_name": "Conv2D", "name": "conv2d_13"}, {"inbound_nodes": [[["conv2d_13", 0, 0, {}]]], "config": {"momentum": 0.99, "gamma_initializer": {"config": {}, "class_name": "Ones"}, "name": "batch_normalization_13", "moving_mean_initializer": {"config": {}, "class_name": "Zeros"}, "beta_initializer": {"config": {}, "class_name": "Zeros"}, "beta_regularizer": null, "center": true, "axis": 1, "moving_variance_initializer": {"config": {}, "class_name": "Ones"}, "epsilon": 0.001, "scale": true, "trainable": true, "beta_constraint": null, "gamma_regularizer": null, "gamma_constraint": null}, "class_name": "BatchNormalization", "name": "batch_normalization_13"}, {"inbound_nodes": [[["batch_normalization_13", 0, 0, {}]]], "config": {"trainable": true, "alpha": 1.0, "name": "elu_13"}, "class_name": "ELU", "name": "elu_13"}, {"inbound_nodes": [[["elu_13", 0, 0, {}]]], "config": {"activation": "linear", "name": "conv2d_14", "bias_initializer": {"config": {}, "class_name": "Zeros"}, "activity_regularizer": null, "strides": [1, 1], "bias_regularizer": null, "filters": 24, "kernel_size": [3, 3], "kernel_initializer": {"config": {"seed": null, "mode": "fan_in", "scale": 2.0, "distribution": "uniform"}, "class_name": "VarianceScaling"}, "trainable": true, "kernel_constraint": null, "dilation_rate": [1, 1], "padding": "same", "bias_constraint": null, "kernel_regularizer": null, "data_format": "channels_first", "use_bias": true}, "class_name": "Conv2D", "name": "conv2d_14"}, {"inbound_nodes": [[["conv2d_14", 0, 0, {}]]], "config": {"momentum": 0.99, "gamma_initializer": {"config": {}, "class_name": "Ones"}, "name": "batch_normalization_14", "moving_mean_initializer": {"config": {}, "class_name": "Zeros"}, "beta_initializer": {"config": {}, "class_name": "Zeros"}, "beta_regularizer": null, "center": true, "axis": 1, "moving_variance_initializer": {"config": {}, "class_name": "Ones"}, "epsilon": 0.001, "scale": true, "trainable": true, "beta_constraint": null, "gamma_regularizer": null, "gamma_constraint": null}, "class_name": "BatchNormalization", "name": "batch_normalization_14"}, {"inbound_nodes": [[["batch_normalization_14", 0, 0, {}]]], "config": {"trainable": true, "alpha": 1.0, "name": "elu_14"}, "class_name": "ELU", "name": "elu_14"}, {"inbound_nodes": [[["elu_14", 0, 0, {}]]], "config": {"trainable": true, "name": "up_sampling2d_3", "size": [2, 2], "data_format": "channels_first"}, "class_name": "UpSampling2D", "name": "up_sampling2d_3"}, {"inbound_nodes": [[["up_sampling2d_3", 0, 0, {"mask": [null, null]}], ["elu_4", 0, 0, {"mask": [null, null]}]]], "config": {"mode_type": "raw", "name": "merge_3", "concat_axis": 1, "output_shape": null, "mode": "concat", "dot_axes": -1, "arguments": {}, "output_shape_type": "raw", "output_mask": null, "output_mask_type": "raw"}, "class_name": "Merge", "name": "merge_3"}, {"inbound_nodes": [[["merge_3", 0, 0, {}]]], "config": {"activation": "linear", "name": "conv2d_15", "bias_initializer": {"config": {}, "class_name": "Zeros"}, "activity_regularizer": null, "strides": [1, 1], "bias_regularizer": null, "filters": 12, "kernel_size": [3, 3], "kernel_initializer": {"config": {"seed": null, "mode": "fan_in", "scale": 2.0, "distribution": "uniform"}, "class_name": "VarianceScaling"}, "trainable": true, "kernel_constraint": null, "dilation_rate": [1, 1], "padding": "same", "bias_constraint": null, "kernel_regularizer": null, "data_format": "channels_first", "use_bias": true}, "class_name": "Conv2D", "name": "conv2d_15"}, {"inbound_nodes": [[["conv2d_15", 0, 0, {}]]], "config": {"momentum": 0.99, "gamma_initializer": {"config": {}, "class_name": "Ones"}, "name": "batch_normalization_15", "moving_mean_initializer": {"config": {}, "class_name": "Zeros"}, "beta_initializer": {"config": {}, "class_name": "Zeros"}, "beta_regularizer": null, "center": true, "axis": 1, "moving_variance_initializer": {"config": {}, "class_name": "Ones"}, "epsilon": 0.001, "scale": true, "trainable": true, "beta_constraint": null, "gamma_regularizer": null, "gamma_constraint": null}, "class_name": "BatchNormalization", "name": "batch_normalization_15"}, {"inbound_nodes": [[["batch_normalization_15", 0, 0, {}]]], "config": {"trainable": true, "alpha": 1.0, "name": "elu_15"}, "class_name": "ELU", "name": "elu_15"}, {"inbound_nodes": [[["elu_15", 0, 0, {}]]], "config": {"activation": "linear", "name": "conv2d_16", "bias_initializer": {"config": {}, "class_name": "Zeros"}, "activity_regularizer": null, "strides": [1, 1], "bias_regularizer": null, "filters": 12, "kernel_size": [3, 3], "kernel_initializer": {"config": {"seed": null, "mode": "fan_in", "scale": 2.0, "distribution": "uniform"}, "class_name": "VarianceScaling"}, "trainable": true, "kernel_constraint": null, "dilation_rate": [1, 1], "padding": "same", "bias_constraint": null, "kernel_regularizer": null, "data_format": "channels_first", "use_bias": true}, "class_name": "Conv2D", "name": "conv2d_16"}, {"inbound_nodes": [[["conv2d_16", 0, 0, {}]]], "config": {"momentum": 0.99, "gamma_initializer": {"config": {}, "class_name": "Ones"}, "name": "batch_normalization_16", "moving_mean_initializer": {"config": {}, "class_name": "Zeros"}, "beta_initializer": {"config": {}, "class_name": "Zeros"}, "beta_regularizer": null, "center": true, "axis": 1, "moving_variance_initializer": {"config": {}, "class_name": "Ones"}, "epsilon": 0.001, "scale": true, "trainable": true, "beta_constraint": null, "gamma_regularizer": null, "gamma_constraint": null}, "class_name": "BatchNormalization", "name": "batch_normalization_16"}, {"inbound_nodes": [[["batch_normalization_16", 0, 0, {}]]], "config": {"trainable": true, "alpha": 1.0, "name": "elu_16"}, "class_name": "ELU", "name": "elu_16"}, {"inbound_nodes": [[["elu_16", 0, 0, {}]]], "config": {"trainable": true, "name": "up_sampling2d_4", "size": [2, 2], "data_format": "channels_first"}, "class_name": "UpSampling2D", "name": "up_sampling2d_4"}, {"inbound_nodes": [[["up_sampling2d_4", 0, 0, {"mask": [null, null]}], ["elu_2", 0, 0, {"mask": [null, null]}]]], "config": {"mode_type": "raw", "name": "merge_4", "concat_axis": 1, "output_shape": null, "mode": "concat", "dot_axes": -1, "arguments": {}, "output_shape_type": "raw", "output_mask": null, "output_mask_type": "raw"}, "class_name": "Merge", "name": "merge_4"}, {"inbound_nodes": [[["merge_4", 0, 0, {}]]], "config": {"activation": "linear", "name": "conv2d_17", "bias_initializer": {"config": {}, "class_name": "Zeros"}, "activity_regularizer": null, "strides": [1, 1], "bias_regularizer": null, "filters": 6, "kernel_size": [3, 3], "kernel_initializer": {"config": {"seed": null, "mode": "fan_in", "scale": 2.0, "distribution": "uniform"}, "class_name": "VarianceScaling"}, "trainable": true, "kernel_constraint": null, "dilation_rate": [1, 1], "padding": "same", "bias_constraint": null, "kernel_regularizer": null, "data_format": "channels_first", "use_bias": true}, "class_name": "Conv2D", "name": "conv2d_17"}, {"inbound_nodes": [[["conv2d_17", 0, 0, {}]]], "config": {"momentum": 0.99, "gamma_initializer": {"config": {}, "class_name": "Ones"}, "name": "batch_normalization_17", "moving_mean_initializer": {"config": {}, "class_name": "Zeros"}, "beta_initializer": {"config": {}, "class_name": "Zeros"}, "beta_regularizer": null, "center": true, "axis": 1, "moving_variance_initializer": {"config": {}, "class_name": "Ones"}, "epsilon": 0.001, "scale": true, "trainable": true, "beta_constraint": null, "gamma_regularizer": null, "gamma_constraint": null}, "class_name": "BatchNormalization", "name": "batch_normalization_17"}, {"inbound_nodes": [[["batch_normalization_17", 0, 0, {}]]], "config": {"trainable": true, "alpha": 1.0, "name": "elu_17"}, "class_name": "ELU", "name": "elu_17"}, {"inbound_nodes": [[["elu_17", 0, 0, {}]]], "config": {"activation": "linear", "name": "conv2d_18", "bias_initializer": {"config": {}, "class_name": "Zeros"}, "activity_regularizer": null, "strides": [1, 1], "bias_regularizer": null, "filters": 6, "kernel_size": [3, 3], "kernel_initializer": {"config": {"seed": null, "mode": "fan_in", "scale": 2.0, "distribution": "uniform"}, "class_name": "VarianceScaling"}, "trainable": true, "kernel_constraint": null, "dilation_rate": [1, 1], "padding": "same", "bias_constraint": null, "kernel_regularizer": null, "data_format": "channels_first", "use_bias": true}, "class_name": "Conv2D", "name": "conv2d_18"}, {"inbound_nodes": [[["conv2d_18", 0, 0, {}]]], "config": {"trainable": true, "cropping": [[16, 16], [16, 16]], "name": "cropping2d_1", "data_format": "channels_first"}, "class_name": "Cropping2D", "name": "cropping2d_1"}, {"inbound_nodes": [[["cropping2d_1", 0, 0, {}]]], "config": {"momentum": 0.99, "gamma_initializer": {"config": {}, "class_name": "Ones"}, "name": "batch_normalization_18", "moving_mean_initializer": {"config": {}, "class_name": "Zeros"}, "beta_initializer": {"config": {}, "class_name": "Zeros"}, "beta_regularizer": null, "center": true, "axis": 1, "moving_variance_initializer": {"config": {}, "class_name": "Ones"}, "epsilon": 0.001, "scale": true, "trainable": true, "beta_constraint": null, "gamma_regularizer": null, "gamma_constraint": null}, "class_name": "BatchNormalization", "name": "batch_normalization_18"}, {"inbound_nodes": [[["batch_normalization_18", 0, 0, {}]]], "config": {"trainable": true, "alpha": 1.0, "name": "elu_18"}, "class_name": "ELU", "name": "elu_18"}, {"inbound_nodes": [[["elu_18", 0, 0, {}]]], "config": {"activation": "sigmoid", "name": "conv2d_19", "bias_initializer": {"config": {}, "class_name": "Zeros"}, "activity_regularizer": null, "strides": [1, 1], "bias_regularizer": null, "filters": 1, "kernel_size": [1, 1], "kernel_initializer": {"config": {"seed": null, "mode": "fan_avg", "scale": 1.0, "distribution": "uniform"}, "class_name": "VarianceScaling"}, "trainable": true, "kernel_constraint": null, "dilation_rate": [1, 1], "padding": "valid", "bias_constraint": null, "kernel_regularizer": null, "data_format": "channels_first", "use_bias": true}, "class_name": "Conv2D", "name": "conv2d_19"}], "output_layers": [["conv2d_19", 0, 0]], "name": "model_1", "input_layers": [["input_1", 0, 0]]}, "class_name": "Model"}